models/electronics_cooling_model.pth (torch, 20540 bytes, 5 tensors)

fc1.weight f4 [64, 2]
-0.46717554 -0.33967477 -0.018255737 0.2798096 -0.017254498 -0.11185209 -0.39962098 0.22904274
-0.47036463 -0.5988969 0.28758913 0.11960794 -0.42108342 -0.53158253 -0.21040575 -0.08995621
0.250616 -0.3476449 0.82946783 0.6595627 -0.01981102 0.2564664 -0.052157037 0.50693095
0.0071708984 0.21699008 0.49932387 0.47098815 0.15112674 -0.47257552 -0.5044314 0.30542555
-0.6311063 0.21616428 0.04941296 -0.069476604 -0.67115325 -0.38062927 0.085309334 0.1337611
0.6134069 0.49944025 -0.54964286 -0.086427 0.1690496 -0.38117093 -0.3978644 -0.596289
-0.0035018972 -0.31073633 0.71125907 0.5622078 -0.068306625 0.6446136 0.3661139 -0.5556193
0.35086814 0.25935355 0.06640176 0.020828376 0.22890353 -0.21737352 -0.032456245 0.42832503
-0.44665366 -0.6532677 0.12859003 -0.26431328 0.2955584 -0.22490375 -0.5385282 -0.38676155
0.67640126 -0.044769812 0.34895888 -0.57041496 0.21754813 0.19941743 -0.52364755 0.19320393
-0.52754796 -0.3855511 0.06956441 -0.0768026 -0.0035377247 0.20738444 0.0923572 0.22472349
-0.1513983 -0.13071406 -0.43629086 -0.5138 0.101838075 -0.20581962 0.18582544 -0.37932503
-0.023437558 0.2339538 -0.6997084 -0.5775999 0.1114205 -0.6698122 0.65918124 0.25280043
-0.016531711 0.22174038 -0.6779542 0.6583996 0.032798517 0.37128386 -0.6507458 0.59395325
0.15807232 0.24515174 -0.08037387 -0.21133374 -0.31965002 -0.36782584 -0.044603616 0.49054348
-0.13375597 -0.584022 -0.054919735 0.56846684 0.15711747 -0.48353225 -0.41319752 0.59962815
00000000: a231 efbe dae9 adbe 0e8d 95bc 3443 8f3e
00000010: 4e59 8dbc b512 e5bd 1f9b ccbe 2e8a 6a3e
00000020: a2d3 f0be 4f51 19bf e23e 933e 02f5 f43d
00000030: 3f98 d7be cb15 08bf 9b74 57be f63a b8bd
00000040: be50 803e 83fe b1be 0158 543f 1ad9 283f
00000050: b84a a2bc 904f 833e 9ea2 55bd 3ac6 013f
00000060: dbf9 ea3b a632 5e3e 61a7 ff3e 5c25 f13e
00000070: f8c0 1a3e 6bf5 f1be 6b22 01bf bd60 9c3e
00000080: 2f90 21bf 2b5a 5d3e 3e65 4a3d c049 8ebd
00000090: b3d0 2bbf d7e1 c2be a9b6 ae3d abf8 083e
000000a0: 3c08 1d3f a2b6 ff3e 65b5 0cbf a400 b1bd
000000b0: 571b 2d3e d628 c3be e2b4 cbbe 65a6 18bf
000000c0: 1680 65bb d518 9fbe 1315 363f daec 0f3f
000000d0: 58e4 8bbd 6605 253f 4873 bb3e 113d 0ebf
000000e0: fda4 b33e fdc9 843e a5fd 873d 45a0 aa3c
000000f0: b065 6a3e 2a97 5ebe d7f0 04bd 6b4d db3e
00000100: caaf e4be 8d3c 27bf 1bad 033e 1254 87be
00000110: 6e53 973e 2b4d 66be fcdc 09bf 9c05 c6be
00000120: a228 2d3f 8d60 37bd bdaa b23e b706 12bf
00000130: f0c4 5e3e 1534 4c3e c40d 06bf 40d7 453e
00000140: 620d 07bf f466 c5be c977 8e3d ae4a 9dbd
00000150: 2cd9 67bb 965c 543e c625 bd3d ea1d 663e
00000160: 2808 1bbe e8d9 05be 8461 dfbe 6688 03bf
00000170: 7b90 d03d 61c2 52be 0649 3e3e e436 c2be
00000180: 1f00 c0bc 9691 6f3e 1720 33bf 96dd 13bf
00000190: 6e30 e43d d078 2bbf 1ac0 283f 0f6f 813e
000001a0: 836d 87bc e90f 633e 688e 2dbf e08c 283f
000001b0: bd57 063d eb18 be3e 4797 26bf 520d 183f
000001c0: b6dd 213e 0f09 7b3e 0e9b a4bd df67 58be
000001d0: 2ba9 a3be ab53 bcbe 48b2 36bd 8428 fb3e
000001e0: 53f7 08be 7782 15bf 84f3 60bd 0b87 113f
000001f0: 67e3 203e 8a91 f7be a08e d3be 3b81 193f

fc1.bias f4 [64]
0.07098701 0.45628136 -0.44998217 -0.5700786 -0.44651735 -0.6758777 -0.56938833 0.48199707
-0.6823212 -0.5497494 -0.21333651 -0.16946606 -0.56499594 0.46595407 -0.6623758 0.3673729
-0.25130412 -0.6765088 0.2356871 -0.37992573 -0.30996102 -0.1760967 0.27397138 -0.46922666
0.39474055 -0.13360746 -0.061474122 -0.8481455 -0.7446641 -0.39139608 -0.5020303 -0.3457728
0.67763305 0.45410702 0.26892477 0.30090186 0.5613849 0.53916574 0.35682714 -0.29654765
0.5604088 -0.58510214 0.22904594 0.3204934 0.6986465 0.6662879 -0.42226988 -0.4621888
0.1025586 -0.45173177 0.29726803 -0.3484912 -0.26422176 -0.24590823 -0.81700075 0.23267952
-0.31453574 -0.23418956 -0.50194883 0.44753405 -0.5944807 -0.14454208 0.3218643 -0.38910416
00000000: a361 913d b69d e93e 1064 e6be acf0 11bf
00000010: ec9d e4be 5206 2dbf 6fc3 11bf 52c8 f63e
00000020: 9aac 2ebf 60bc 0cbf e374 5abe 8388 2dbe
00000030: 93a3 10bf 8891 ee3e 7691 29bf 4d18 bc3e
00000040: efaa 80be ae2f 2dbf f657 713e a085 c2be
00000050: 36b3 9ebe b152 34be fa45 8c3e 7a3e f0be
00000060: 6f1b ca3e 65d0 08be 4acc 7bbd 1020 59bf
00000070: 4ea2 3ebf 1165 c8be 0f85 00bf 2209 b1be
00000080: 5c79 2d3f b780 e83e 82b0 893e cf0f 9a3e
00000090: ecb6 0f3f c406 0a3f 0cb2 b63e 18d5 97be
000000a0: f376 0f3f 41c9 15bf 058b 6a3e b617 a43e
000000b0: 7fda 323f d891 2a3f c233 d8be 03a4 ecbe
000000c0: 3e0a d23d 6349 e7be 8433 983e 706d b2be
000000d0: 1348 87be 5ecf 7bbe f626 51bf 8a43 6e3e
000000e0: d40a a1be 63cf 6fbe b87f 00bf 2f23 e53e
000000f0: e32f 18bf d702 14be 66cb a43e a938 c7be

fc2.weight f4 [64, 64]
-0.058455735 -0.14645185 -0.080843866 0.008916274 -0.041095316 -0.05400936 0.050198674 -0.03581217
-0.031128105 -0.05255629 -0.07699376 0.037886277 0.00959276 0.010432087 0.025064701 -0.028956398
-0.062845334 -0.03661896 0.06922495 -0.115423545 -0.11710554 -0.005991593 -0.026896631 -0.0746768
-0.07174441 -0.047521535 0.06346631 -0.11033065 -0.03425708 -0.018351203 -0.11451352 -0.105801195
-0.035755023 0.07800695 -0.104704574 0.07157603 -0.05724768 0.07079821 0.015029628 -0.119763315
0.0066990852 -0.007339817 -0.02498707 -0.009237362 -0.057798684 0.06154862 -0.009919853 0.020046888
-0.023142342 0.06804605 -0.047517307 -0.035264604 0.020366607 0.0074843466 0.088656284 0.0007046908
0.08818044 0.105697855 -0.10678153 0.07553592 0.036829144 0.09898723 -0.099237844 -0.02588825
-0.09252477 0.011536272 -0.10061689 0.124264896 -0.027408198 -0.015639426 -0.077748746 0.07659428
-0.04255648 -0.012099179 0.026490495 0.027599588 -0.009058812 -0.0735669 0.08198964 -0.016322806
0.016496643 0.09728544 0.031742677 -0.07757877 -0.117328346 0.09748557 -0.042773288 -0.111528546
-0.043946683 -0.063371204 -0.0902818 -0.042424545 0.10234212 0.034317136 -0.112125546 -0.11009479
-0.026939288 -0.08916595 -0.10755943 -0.020301625 -0.08427821 -0.085282795 -0.057803676 0.097753495
-0.10741928 -0.008870462 0.060074236 0.018222898 -0.040086567 0.031369567 0.0972928 -0.031136699
-0.053145573 -0.07383765 0.090193965 -0.0021279086 -0.14012623 0.028121516 0.034199074 -0.07248251
-0.04981208 0.11744879 -0.1143733 -0.1206125 0.062629715 -0.0018385635 0.059225064 -0.026609302
0.11521228 -0.2587578 -0.04500267 -0.1185371 -0.04924649 -0.09776054 -0.0128965825 -0.09593402
0.04568622 0.057227563 -0.15837821 -0.19444746 0.051870495 -0.11042454 0.0064092106 -0.04645042
0.09333058 -0.13484524 -0.08711657 -0.106032416 -0.13411342 -0.04515089 0.039212987 -0.025835156
0.04783155 -0.017145375 -0.012055227 -0.08587946 -0.10118433 -0.061887752 -0.025713246 0.0032801665
0.027977154 -0.06597708 0.022920538 -0.002294451 0.061669037 0.058737997 -0.091339394 0.029354617
-0.03613895 -0.169527 -0.053635933 -0.04118919 -0.04565823 -0.009339705 -0.03038262 -0.10672569
0.058816448 -0.05443965 0.045942023 -0.09949157 -0.16703443 -0.023360416 -0.022807773 -0.06377542
-0.034395214 -0.06550698 -0.08022788 0.033195235 0.054162756 -0.10067983 -0.13445738 -0.05593668
0.106943294 -0.32927945 -0.010673001 -0.06304087 0.017144635 -0.12170898 0.05084333 -0.067694366
-0.08383285 0.035551123 -0.17415224 -0.18079372 0.024756456 -0.0055948575 0.03183259 0.10977203
-0.080431655 -0.017436275 -0.046025664 -0.08670088 -0.040904872 -0.10670452 -0.029062236 -0.11453812
-0.010927826 -0.010692101 0.019561347 0.017085833 -0.08819197 0.007557181 -0.055321824 0.008446676
-0.111378774 -0.106179185 -0.13136245 -0.08979745 0.050475903 -0.002567089 -0.074946426 -0.1116191
0.077863365 0.017439583 -0.040743653 -0.087882236 -0.10764444 0.013789341 0.036535226 -0.1116581
-0.15925547 0.1148601 -0.13043489 -0.10598164 -0.3619778 -0.06880085 -0.17117126 0.016209409
-0.04694266 -0.024353176 0.008220345 0.021762986 0.053407907 -0.13597773 -0.01445933 -0.092703715
00000000: 486f 6fbd 79f7 15be 7891 a5bd 9015 123c
00000010: 9053 28bd eb38 5dbd 209d 4d3d c8af 12bd
00000020: 5e00 ffbc 4445 57bd e8ae 9dbd a42e 1b3d
00000030: f42a 1d3c 58eb 2a3c 7d54 cd3c f835 edbc
00000040: 0eb5 80bd c3fd 15bd d0c5 8d3d 2e63 ecbd
00000050: 08d5 efbd 2055 c4bb 5356 dcbc 26f0 98bd
00000060: bcee 92bd f1a5 42bd a0fa 813d 09f5 e1bd
00000070: 2751 0cbd 4355 96bc 1086 eabd 4cae d8bd
00000080: dc73 12bd 1cc2 9f3d 5a6f d6bd 7496 923d
00000090: 8b7c 6abd a7fe 903d d43e 763c 7846 f5bd
000000a0: 0084 db3b d982 f0bb afb1 ccbc 4e58 17bc
000000b0: 50be 6cbd 681a 7c3d e186 22bc 5f39 a43c
000000c0: 0295 bdbc ba5b 8b3d 82a1 42bd 9e71 10bd
000000d0: dfd7 a63c 403f f53b 6d91 b53d 00bb 383a
000000e0: f297 b43d 1e78 d83d 46b0 dabd 94b2 9a3d
000000f0: 28da 163d d1b9 ca3d 363d cbbd 9813 d4bc
00000100: a07d bdbd a202 3d3c 3a10 cebd 987e fe3d
00000110: 2887 e0bc 411e 80bc bc3a 9fbd 76dd 9c3d
00000120: b44f 2ebd a33b 46bc 9802 d93c 8818 e23c
00000130: 696b 14bc 3eaa 96bd 2fea a73d 68b7 85bc
00000140: f823 873c 973d c73d 9c04 023d 9ee1 9ebd
00000150: d849 f0bd 84a6 c73d 0b33 2fbd 1469 e4bd
00000160: 7001 34bd c3c8 81bd aae5 b8bd 5cc5 2dbd
00000170: bf98 d13d 2090 0c3d 14a2 e5bd 6179 e1bd
00000180: c8af dcbc a39c b6bd 1e48 dcbd 984f a6bc
00000190: 0e9a acbd bfa8 aebd 8cc3 6cbd fc32 c83d
000001a0: a4fe dbbd 6a55 11bc 6710 763d 3048 953c
000001b0: d031 24bd 607d 003d 7341 c73d 6412 ffbc
000001c0: 2caf 59bd 3238 97bd 9db7 b83d 6274 0bbb
000001d0: 407d 0fbe 185f e63c 5414 0c3d b671 94bd
000001e0: c007 4cbd fe88 f03d 8c3c eabd b003 f7bd
000001f0: 0244 803d f4fb f0ba fb95 723d c0fb d9bc
00000200: 6af4 eb3d e77b 84be b854 38bd 94c3 f2bd
00000210: b0b6 49bd ae36 c8bd 304c 53bc 0e79 c4bd
00000220: 7921 3b3d 7367 6a3d e62d 22be 3c1d 47be
00000230: 2876 543d 4326 e2bd 5b04 d23b cc42 3ebd
00000240: 1a24 bf3d df14 0abe 2c6a b2bd 8627 d9bd
00000250: 0755 09be 24f0 38bd cc9d 203d 40a4 d3bc
00000260: 04eb 433d 7574 8cbc 4983 45bc 92e1 afbd
00000270: bb39 cfbd 037e 7dbd 96a4 d2bc 10f8 563b
00000280: 5830 e53c fe1e 87bd dac3 bb3c 805e 16bb
00000290: ac98 7c3d 4197 703d 2610 bbbd 1879 f03c
000002a0: 7006 14bd 7c98 2dbe 5ab1 5bbd ffb5 28bd
000002b0: 2004 3bbd 9005 19bc f9e4 f8bc 0093 dabd
000002c0: 84e9 703d 1cfc 5ebd b42d 3c3d 3cc2 cbbd
000002d0: 130b 2bbe 585e bfbc 5ed7 babc b09c 82bd
000002e0: ffe1 0cbd 8628 86bd 844e a4bd baf7 073d
000002f0: c4d9 5d3d 3a31 cebd 32af 09be dc1d 65bd
00000300: 1605 db3d 5197 a8be d0dd 2ebc 921b 81bd
00000310: e872 8c3c 8f42 f9bd 1841 503d 58a3 8abd
00000320: 8fb0 abbd 0e9e 113d f754 32be fd21 39be
00000330: 0dce ca3c 1155 b7bb e462 023d 28d0 e03d
00000340: 5ab9 a4bd 85d6 8ebc 6885 3cbd 3b90 b1bd
00000350: de8b 27bd e687 dabd ed13 eebc f692 eabd
00000360: a00a 33bc ec2d 2fbc 1e3f a03c 97f7 8b3c
00000370: fe9d b4bd 3ba2 f73b 2399 62bd ed63 0a3c
00000380: 8e1a e4bd 7974 d9bd e183 06be bae7 b7bd
00000390: d2bf 4e3d 9b3c 28bb 837d 99bd 8e98 e4bd
000003a0: d476 9f3d 75dd 8e3c d1e2 26bd 9afb b3bd
000003b0: b074 dcbd b0ec 613c f6a5 153d 00ad e4bd
000003c0: de13 23be c63b eb3d b990 05be e70c d9bd
000003d0: 2755 b9be 76e7 8cbd 8547 2fbe 98c9 843c
000003e0: f246 40bd 5080 c7bc a0ae 063c 4a48 b23c
000003f0: 40c2 5a3d bf3d 0bbe d3e6 6cbc 72db bdbd

fc2.bias f4 [64]
0.06267522 0.1051425 -0.0033682513 -0.09117924 0.13880542 -0.15002201 -0.041581012 0.17887355
0.17940146 0.02448913 0.20010914 -0.19171691 0.11067354 -0.0112441275 -0.06146636 0.044825
-0.010974083 0.35519135 0.15086801 0.24879403 0.29632193 0.24298868 0.19631654 0.19817677
0.004398913 0.11986276 -0.0035522073 0.05549285 0.11111539 0.1793222 -0.14039056 0.35191068
0.116563275 -0.080072 0.118965946 0.27980828 0.15388535 0.27124923 0.0026498062 0.18890955
0.26709756 0.3147426 0.13349526 0.33417186 -0.01168806 0.38653225 0.3982701 0.20152353
0.31933716 0.21993007 0.010677359 0.27163607 0.21932654 0.2390214 0.33993223 0.18832092
-0.049535822 0.27760652 -0.1004132 0.14942911 -0.03296253 -0.17503639 -0.09657885 -0.15839876
00000000: de5b 803d f354 d73d e1bd 5cbb 2ebc babd
00000010: 0223 0e3e 5f9f 19be da50 2abd a12a 373e
00000020: 04b5 373e 6e9d c83c 69e9 4c3e 7051 44be
00000030: cfa8 e23d 4a39 38bc 26c4 7bbd 6b9a 373d
00000040: a4cc 33bc a4db b53e 257d 1a3e ddc3 7e3e
00000050: 82b7 973e 06d2 783e 3407 493e daee 4a3e
00000060: c224 903b 9b7a f53d 26cc 68bb 784c 633d
00000070: 7790 e33d 3da0 373e 8bc2 0fbe a32d b43e
00000080: bab8 ee3d cafc a3bd 6ba4 f33d 0843 8f3e
00000090: 1f94 1d3e 2ee1 8a3e 5fa8 2d3b 8171 413e
000000a0: 03c1 883e f125 a13e fbb2 083e 9318 ab3e
000000b0: 477f 3fbc 8ee7 c53e 0fea cb3e 2f5c 4e3e
000000c0: 2980 a33e 5935 613e 17f0 2e3c e213 8b3e
000000d0: 2397 603e 07c2 743e 990b ae3e 33d7 403e
000000e0: 13e6 4abd 7122 8e3e 70a5 cdbd f203 193e
000000f0: b803 07bd bd3c 33be 22cb c5bd 4933 22be

output.weight f4 [1, 64]
-0.089182556 -0.01658077 -0.05955803 -0.04017979 0.19032286 -0.078974746 -0.011280993 0.13243814
0.020198531 -0.084426984 0.03234616 0.04977149 0.20029633 -0.070162155 0.07967785 0.16193198
-0.04129595 0.37610304 0.1995746 0.21028517 0.11016548 0.006416517 0.11221439 0.09556826
0.02097527 0.069282524 0.023035582 -0.03259738 0.08672953 0.03550811 -0.022375654 0.049856603
0.015191348 -0.012785148 0.22203478 0.05150297 0.23460807 0.0092546195 -0.02521449 0.1547813
0.14144897 0.19693507 0.010989099 0.07491983 -0.046333093 0.3608223 0.23249923 0.014795834
0.02272379 0.026599763 -0.04476304 0.08029371 0.08988293 0.051394243 0.11516365 0.03678676
-0.07272296 0.09476374 -0.07308399 -0.0020325368 -0.054888774 0.039188124 -0.05068424 -0.04925447
00000000: 58a5 b6bd 65d4 87bc 1ff3 73bd 9093 24bd
00000010: ffe3 423e 83bd a1bd ead3 38bc dd9d 073e
00000020: 6477 a53c 0ee8 acbd 687d 043d 31dd 4b3d
00000030: 7b1a 4d3e 2db1 8fbd 242e a33d 7fd1 253e
00000040: f125 29bd 9490 c03e 495d 4c3e ff54 573e
00000050: 709e e13d a541 d23b a8d0 e53d 4bb9 c33d
00000060: 54d4 ab3c ffe3 8d3d 1eb5 bc3c d584 05bd
00000070: 409f b13d f470 113d 264d b7bc 7036 4c3d
00000080: 22e5 783c cc78 51bc 165d 633e c7f4 523d
00000090: 193d 703e b0a0 173c 9e8e cebc fd7e 1e3e
000000a0: 00d8 103e 59a9 493e 9f0b 343c 916f 993d
000000b0: c5c7 3dbd b3bd b83e 4714 6e3e 3a6a 723c
000000c0: 3e27 ba3c bfe7 d93c 7359 37bd 0771 a43d
000000d0: 8b14 b83d c582 523d ebda eb3d b7ad 163d
000000e0: c6ef 94bd 7e13 c23d 0fad 95bd 4f34 05bb
000000f0: 0dd3 60bd ba83 203d 479a 4fbd 0ebf 49bd
