models/electronics_cooling_model.pth (torch, 20540 bytes, 5 tensors)

fc1.weight f4 [64, 2]
0.6287426 0.68345785 0.065236546 -0.9348807 -0.03441951 0.17863664 -0.40168762 -0.4890432
-0.66261166 -0.39178017 0.057030015 -0.09994459 0.105792046 -0.2917173 -0.6487561 0.21999213
-0.6707906 -0.11076133 -0.04372763 0.27742615 0.14794527 -0.17637183 0.70698696 0.7314643
-0.18161422 -0.3342159 -0.10667586 -0.39172375 -0.39533287 0.17064087 -0.139536 -0.32700878
0.643971 0.46528566 0.042527962 -0.6117647 0.021873798 -0.33839273 0.048566464 -0.6416116
0.0613809 -0.526704 -0.42852083 0.5398768 -0.04478487 0.2963644 0.030586082 -0.39128336
-0.09539979 0.29582503 -0.21393014 -0.5201087 -0.14524607 0.22021545 -0.12873435 -0.60033804
0.0500112 -0.6513575 0.017101355 -0.25881314 -0.15722486 0.29346737 -0.5630712 -0.0658424
-0.6100454 0.19294693 -0.052849207 0.06494312 0.016005592 -0.26199156 0.040653836 -0.55953544
0.658966 0.34570724 -0.19717547 0.42272198 -0.28256133 0.08376062 -0.4658743 -0.5140138
-0.59984255 -0.3852441 -0.50046766 0.6603193 -0.20195371 -0.6522705 0.10869953 -0.32166955
0.031544678 -0.50174475 0.49583822 0.24555273 -0.45641884 0.21232748 -0.69125164 -0.39645392
-0.43710765 -0.5902618 0.020279208 -0.37202474 0.033361513 -0.3914201 0.04651067 -0.68248856
-0.56958365 -0.63682187 0.13694058 -0.6888193 -0.63003147 -0.5536857 -0.4482898 0.6381654
-0.5174048 -0.65009737 -0.038900446 0.025238039 -0.07196018 0.45144418 0.059456866 -0.9459147
-0.032188136 -0.6907519 -0.27759162 -0.4639568 -0.2684223 0.22507808 0.019217478 -0.24396108
00000000: 46f5 203f 18f7 2e3f bd9a 853d 5754 6fbf
00000010: 79fb 0cbd 86ec 363e 00aa cdbe df63 fabe
00000020: eba0 29bf 6997 c8be 4e98 693d c0af ccbd
00000030: 80a9 d83d f85b 95be e114 26bf 9e45 613e
00000040: efb8 2bbf d6d6 e2bd be1b 33bd cd0a 8e3e
00000050: f77e 173e d19a 34be 19fd 343f 3f41 3b3f
00000060: 14f9 39be 591e abbe e078 dabd 0490 c8be
00000070: 1269 cabe 7bbc 2e3e 86e2 0ebe b26d a7be
00000080: 49db 243f ec39 ee3e cd31 2e3d 9d9c 1cbf
00000090: ae30 b33c d041 adbe a1ed 463d a840 24bf
000000a0: 8a6a 7b3d 13d6 06bf 1567 dbbe 5e35 0a3f
000000b0: 5770 37bd 13bd 973e aa8f fa3c 4b56 c8be
000000c0: f760 c3bd 6176 973e 8110 5bbe d825 05bf
000000d0: 63bb 14be 2980 613e f0d2 03be c1af 19bf
000000e0: 8bd8 4c3d 5dbf 26bf 2418 8c3c 2883 84be
000000f0: 8eff 20be 5b41 963e 6f25 10bf 61d8 86bd
00000100: ef2b 1cbf e193 453e 6978 58bd e600 853d
00000110: 291e 833c c223 86be a384 263d b73d 0fbf
00000120: ffb1 283f 8a00 b13e 5ee8 49be 046f d83e
00000130: e1ab 90be b08a ab3d 1487 eebe 6996 03bf
00000140: 488f 19bf b73e c5be a61e 00bf b00a 293f
00000150: f4cc 4ebe 33fb 26bf dc9d de3d dfb1 a4be
00000160: fe34 013d 5872 00bf 82de fd3e 2d72 7b3e
00000170: bbaf e9be 606c 593e def5 30bf 02fc cabe
00000180: 93cc dfbe 661b 17bf 9520 a63c 077a bebe
00000190: 15a6 083d 3768 c8be f981 3e3d 92b7 2ebf
000001a0: 3cd0 11bf c206 23bf 273a 0c3e 7656 30bf
000001b0: be49 21bf 59be 0dbf 3e86 e5be cf5e 233f
000001c0: a474 04bf c86c 26bf 1356 1fbd 01c0 ce3c
000001d0: dc5f 93bd b123 e73e 0b89 733d 7727 72bf
000001e0: b5d7 03bd 1ed5 30bf 7d20 8ebe bf8b edbe
000001f0: a66e 89be de7a 663e f96d 9d3c efd0 79be

fc1.bias f4 [64]
-0.79522496 -0.7745347 -0.39220238 0.67687964 0.529783 -0.1710462 -0.3098517 -0.26323572
-0.45394516 -0.72387004 -0.09769858 -0.012232939 -0.3460992 0.6481522 -0.53757983 -0.2798222
0.33131486 -0.19907315 0.13858198 -0.97794634 -0.94089115 0.30268046 0.3843528 -0.74235123
0.42644125 -0.5109869 -1.0811306 0.13151553 -1.0121952 0.051837154 -0.42643192 0.045538828
0.076107934 0.29078883 0.14744994 -0.66244465 0.280081 -0.3228005 -0.07264953 0.296958
-0.51039344 -0.35493672 -0.4301814 -1.070148 0.164758 0.19676663 0.25464696 -0.3492371
-0.6726324 -0.35441452 -1.0595025 -0.31517482 0.045387015 -0.8823898 0.32864004 0.0615875
0.54866344 0.45585516 0.24006565 -0.18159634 -0.13543577 0.61272943 0.5027024 -0.45998675
00000000: dd93 4bbf e847 46bf c0ce c8be fc47 2d3f
00000010: dc9f 073f bc26 2fbe e2a4 9ebe d5c6 86be
00000020: 806b e8be 8c4f 39bf 3116 c8bd aa6c 48bc
00000030: ea33 b1be 4ded 253f d59e 09bf db44 8fbe
00000040: 1aa2 a93e d5d9 4bbe 6fe8 0d3e b15a 7abf
00000050: 3ede 70bf eff8 9a3e e4c9 c43e bb0a 3ebf
00000060: 8256 da3e 0ad0 02bf 7d62 8abf 02ac 063e
00000070: 9d8f 81bf 3253 543d 4955 dabe ec86 3a3d
00000080: 7ade 9b3d 46e2 943e 1efd 163e f995 29bf
00000090: c766 8f3e 1b46 a5be 47c9 94bd e10a 983e
000000a0: 25a9 02bf 44ba b5be bd40 dcbe 9cfa 88bf
000000b0: 52b6 283e 317d 493e 1661 823e 35cf b2be
000000c0: a331 2cbf d275 b5be c79d 87bf 985e a1be
000000d0: bce7 393d 4ce4 61bf 8243 a83e 2d43 7c3d
000000e0: 3575 0c3f d965 e93e c5d3 753e 64f4 39be
000000f0: adaf 0abe d6db 1c3f 1bb1 003f 6283 ebbe

fc2.weight f4 [64, 64]
0.08197939 0.03467173 -0.23425145 -0.026212543 -0.084904715 0.016566435 -0.058118142 0.011499256
0.016918316 -0.21858352 -0.03464478 -0.20399554 -0.024800628 -0.061140016 -0.008355007 0.09832895
-0.07018708 0.057460375 -0.023982689 -0.11482758 0.0129995635 -0.062244922 0.022625973 -0.12176814
0.047556367 0.06850457 -0.13170996 -0.0430021 -0.14912571 -0.048411686 -0.21357165 -0.081309065
0.02951309 -0.17192543 0.02401115 -0.073926196 0.06523337 -0.1206256 -0.050904006 0.08735433
-0.11567557 -0.11362301 -0.026521608 -0.3608511 -0.104366824 -0.20978378 -0.0010496676 -0.10451335
-0.040002584 -0.08723059 -0.16723369 -0.1203893 -0.0012270808 0.056972507 -0.10140641 -0.11942381
-0.027070716 0.080057874 0.026189411 -0.09862958 0.018653527 -0.04728228 -0.05535862 -0.1289308
0.19720702 -0.072228275 0.051723115 -0.08000776 -0.053551033 0.04350447 0.011588983 -0.08358273
0.008152574 0.07020578 0.08336022 0.2879583 0.042120725 0.10477112 -0.10182591 0.11930011
0.14176084 0.06785118 0.083467096 -0.007980426 0.03411532 0.07304886 0.07641078 0.025629565
-0.044940863 0.007048279 -0.062423464 -0.09511918 0.10407654 0.03760445 -0.070265986 0.015733495
-0.023958236 0.012716052 -0.058502015 -0.03722921 0.19001932 -0.17032084 0.011999086 -0.050221488
-0.04973629 -0.019052863 0.10718258 -0.07175601 0.099697135 0.00017989792 0.10082513 -0.095385134
-0.002985686 0.090663746 -0.017394565 0.0863328 0.09762862 0.026753424 0.12241587 0.024629384
-0.052422732 -0.024193719 -0.031916786 0.10572759 0.10648659 0.044334278 -0.01415576 0.09634107
0.13836256 0.09609752 0.035476375 0.12073393 -0.042896435 0.1600117 0.11119574 0.10443795
0.06983094 -0.040585976 0.17621338 0.16056773 0.011607289 -0.118131384 0.020142227 0.04730825
-0.51916057 -0.023787772 0.09765075 0.0058100717 0.046277862 -0.0655708 0.11504457 -0.028280562
0.0064688064 -0.11983195 0.015750453 0.118753925 -0.027845928 0.0060714474 0.14677957 -0.106285796
0.022147179 0.0022503631 0.040548608 -0.08767954 0.037550766 -0.116240084 -0.06258015 0.027763903
0.057427138 -0.014310375 -0.027863756 0.13552774 -0.016936045 0.062965296 -0.09037593 -0.08657968
0.03975694 -0.10677394 0.09234856 -0.106546655 -0.08594173 0.15128084 -0.029105008 -0.065968096
-0.03301704 -0.10149342 0.040698726 -0.12895963 -0.01946491 0.046684936 0.026187837 -0.11604739
0.027323104 -0.0572226 -0.04635799 0.032664225 -0.11997576 0.004575145 -0.15632384 -0.031992093
0.09391838 0.04611637 0.063103534 -0.03371125 0.04155916 -0.029539421 0.011062488 0.09630804
-0.34541428 -0.058581106 0.021336092 -0.048680615 0.09133074 -0.05751887 -0.065976605 -0.068423264
-0.07555164 -0.017616808 3.9667015e-05 0.04733342 0.007165245 -0.05718105 -0.12681863 -0.10460724
0.11634536 -0.033840705 -0.05290332 0.032957014 -0.06911088 -0.22129431 0.04055746 0.12238127
-0.031088829 0.012421489 -0.049795255 -0.04932208 -0.09816412 0.34000292 -0.014197841 0.031545803
0.034735814 0.036456928 -0.14309436 -0.07768445 -0.028879419 -0.16898361 0.05094497 0.087098956
-0.10869695 0.07581933 0.14315747 0.13470598 0.04028125 0.044712126 0.10748987 -0.009767484
00000000: cfe4 a73d f203 0e3d 9ddf 6fbe b0bb d6bc
00000010: 86e2 adbd 55b6 873c 4a0d 6ebd 6067 3c3c
00000020: 4898 8a3c 5cd4 5fbe afe7 0dbd 35e4 50be
00000030: b02a cbbc f46d 7abd 70e3 08bc b060 c93d
00000040: 3ebe 8fbd 925b 6b3d 5877 c4bc b92a ebbd
00000050: 1ffc 543c 88f4 7ebd 1b5a b93c 9361 f9bd
00000060: 77ca 423d 204c 8c3d fade 06be f822 30bd
00000070: 69b4 18be 554b 46bd 87b2 5abe 5e85 a6bd
00000080: 70c5 f13c 380d 30be 08b3 c43c 9e66 97bd
00000090: 1399 853d 8e0a f7bd b880 50bd d4e6 b23d
000000a0: 50e7 ecbd 2eb3 e8bd d843 d9bc 7ac1 b8be
000000b0: 46be d5bd 8fd1 56be 0095 89ba 180b d6bd
000000c0: c0d9 23bd f4a5 b2bd 4f3f 2bbe aa8e f6bd
000000d0: 00d6 a0ba 015c 693d 2aae cfbd 7894 f4bd
000000e0: 68c3 ddbc 62f5 a33d 2d8b d63c 4efe c9bd
000000f0: 48cf 983c 10ab 41bd b8bf 62bd 7006 04be
00000100: a3f0 493e 6bec 93bd 9edb 533d 1cdb a3bd
00000110: 5458 5bbd be31 323d b8df 3d3c 6c2d abbd
00000120: 6092 053c 0cc8 8f3d c3b8 aa3d 456f 933e
00000130: c886 2c3d 3e92 d63d 1a8a d0bd 9e53 f43d
00000140: c129 113e 8ff5 8a3d ccf0 aa3d 55c0 02bc
00000150: 81bc 0b3d a49a 953d 417d 9c3d 18f5 d13c
00000160: e913 38bd 40f5 e63b bfaf 7fbd d8cd c2bd
00000170: 1526 d53d 2007 1a3d 9de7 8fbd 88e3 803c
00000180: 1044 c4bc fd56 503c cf9f 6fbd a87d 18bd
00000190: 6d94 423e 9668 2ebe d097 443c 0cb5 4dbd
000001a0: 48b8 4bbd c014 9cbc 8a82 db3d d1f4 92bd
000001b0: 032e cc3d fba2 3c39 687d ce3d 4859 c3bd
000001c0: 80ab 43bb eaad b93d 0c7f 8ebc 40cf b03d
000001d0: 84f1 c73d ff29 db3c 2cb5 fa3d 90c3 c93c
000001e0: 38b9 56bd e831 c6bc 2dbb 02bd b587 d83d
000001f0: a415 da3d dc97 353d 90ed 67bc 784e c53d
00000200: eaae 0d3e c7ce c43d ad4f 113d 5a43 f73d
00000210: 2cb4 2fbd 1bda 233e 98ba e33d 90e3 d53d
00000220: 8603 8f3d 7b3d 26bd 4871 343e de6b 243e
00000230: 802c 3e3c deee f1bd 5001 a53c 4cc6 413d
00000240: b5e7 04bf 93de c2bc 1efd c73d 6a62 be3b
00000250: db8d 3d3d fc49 86bd 7d9c eb3d a3ac e7bc
00000260: 48f8 d33b 746a f5bd 1807 813c 4235 f33d
00000270: 251d e4bc fef2 c63b 624d 163e 5eac d9bd
00000280: 006e b53c d47a 133b 4c16 263d 5591 b3bd
00000290: d5ce 193d 480f eebd 062a 80bd 2071 e33c
000002a0: b838 6b3d 1076 6abc 8842 e4bc c9c7 0a3e
000002b0: 76bd 8abc f3f3 803d 0417 b9bd b050 b1bd
000002c0: 2cd8 223d 4cac dabd 3e21 bd3d 2235 dabd
000002d0: 3802 b0bd 5de9 1a3e a06d eebc 481a 87bd
000002e0: e03c 07bd c8db cfbd b5b3 263d fe0d 04be
000002f0: e074 9fbc b438 3f3d e087 d63c 41aa edbd
00000300: b4d4 df3c 3f62 6abd e0e1 3dbd ecca 053d
00000310: dab5 f5bd 19eb 953b 5b13 20be 240a 03bd
00000320: 4858 c03d 85e4 3c3d 6d3c 813d cf14 0abd
00000330: f039 2a3d a8fc f1bc 703f 353c 263d c53d
00000340: 24da b0be bef2 6fbd 07c9 ae3c 5365 47bd
00000350: 9c0b bb3d e898 6bbd be1e 87bd 7f21 8cbd
00000360: d1ba 9abd 2051 90bc 2260 2638 b0e0 413d
00000370: 6eca ea3b ad36 6abd bedc 01be 523c d6bd
00000380: 7a46 ee3d 8d9c 0abd 27b1 58bd effd 063d
00000390: 018a 8dbd fa9a 62be 941f 263d 08a3 fa3d
000003a0: 00ae febc 8083 4b3c 1cf6 4bbd f305 4abd
000003b0: 450a c9bd dd14 ae3e 109e 68bc 2c36 013d
000003c0: 2447 0e3d dc53 153d 5487 12be 0619 9fbd
000003d0: 8894 ecbc 0a0a 2dbe acab 503d f060 b23d
000003e0: 829c debd 2a47 9b3d df97 123e 5df0 093e
000003f0: f4fd 243d 1024 373d a623 dc3d cc07 20bc

fc2.bias f4 [64]
0.026471395 0.12907451 0.38529372 0.25847307 0.05057299 0.08434786 -0.1422429 0.087043025
0.1210485 0.12946919 0.035126746 0.37362662 0.18728161 0.016425291 0.013628129 0.15717623
0.06512419 0.50527525 0.3220789 0.44036156 0.10510029 0.6606756 -0.17871249 -0.040654458
0.4704725 0.027992545 0.36162147 -0.039249074 0.07476886 -0.10542678 0.077510394 0.16340733
0.071909234 -0.0045692245 0.14403196 0.16846102 0.23101409 0.22835673 0.08796073 -0.044834323
0.40461203 0.24920629 -0.0036021003 -0.09934284 -0.12130654 0.12123832 -0.0699476 0.07688308
0.4320924 -0.044360965 0.44068077 0.12934053 0.0471403 -0.20364523 0.20554817 0.03223557
-0.15108606 -0.13192223 0.6013714 0.3113342 0.081621654 0.032688014 -0.12774324 -0.08807936
00000000: 8ada d83c 1c2c 043e 3845 c53e 9556 843e
00000010: a025 4f3d 92be ac3d 1fa8 11be 9d43 b23d
00000020: 47e8 f73d 9293 043e 10e1 0f3d fd4b bf3e
00000030: c0c6 3f3e 558e 863c 8448 5f3c cef2 203e
00000040: d55f 853d b859 013f 87e7 a43e 1277 e13e
00000050: d23e d73d 0922 293f 6800 37be 4a85 26bd
00000060: c6e1 f03e 9f50 e53c 7326 b93e a3c3 20bd
00000070: 6b20 993d ffe9 d7bd c5bd 9e3d 4054 273e
00000080: 2645 933d 6fb9 95bb 1d7d 133e 0c81 2c3e
00000090: f58e 6c3e 59d6 693e c124 b43d 32a4 37bd
000000a0: 4f29 cf3e ef2f 7f3e 3711 6cbb 4274 cbbd
000000b0: 906f f8bd cc4b f83d b040 8fbd e074 9d3d
000000c0: 373b dd3e d8b3 35bd e9a0 e13e d871 043e
000000d0: 3016 413d 6088 50be 387b 523e 7209 043d
000000e0: 4eb6 1abe 9f16 07be 7af3 193f 3267 9f3e
000000f0: 4129 a73d dee3 053d 20cf 02be f462 b4bd

output.weight f4 [1, 64]
0.022010323 0.15379891 0.19800952 0.11378443 -0.03305887 -0.07259433 -0.006828617 0.109436736
0.10678545 0.13378194 0.06679338 0.48314133 0.14283064 0.015019802 0.07945555 0.10776627
0.026403222 0.3471159 0.20053697 0.29183993 0.08895094 0.3643753 -0.0685151 0.005074798
0.16278547 0.06405454 0.3267792 0.02278089 0.2360615 0.082751095 0.12870906 0.27578527
0.09086163 0.008653674 0.096782185 0.06550272 0.12873673 0.314797 0.039121334 0.018066708
0.1893227 0.122863114 0.072746746 0.0029979285 0.057865188 0.04294762 -0.007832773 0.07214759
0.31552228 -0.05440507 0.25135508 0.026673406 0.026526378 -0.04955235 0.06137188 0.007603044
0.010222713 -0.022177141 0.38402557 0.2680855 0.16154176 0.009953343 -0.047688667 0.009205392
00000000: fe4e b43c 767d 1d3e 02c3 4a3e d007 e93d
00000010: bd68 07bd 56ac 94bd 97c2 dfbb 5e20 e03d
00000020: 54b2 da3d 22fe 083e f8ca 883d 4d5e f73e
00000030: 3242 123e 9e15 763c 97b9 a23d 90b4 dc3d
00000040: 924b d83c 2db9 b13e 9059 4d3e 0b6c 953e
00000050: e92b b63d 668f ba3e a551 8cbd 7e4a a63b
00000060: 3cb1 263e 072f 833d 9a4f a73e fd9e ba3c
00000070: 1bba 713e 6879 a93d 4fcc 033e ba33 8d3e
00000080: aa15 ba3d 24c8 0d3c bd35 c63d 4a26 863d
00000090: 90d3 033e 132d a13e b13d 203d a200 943c
000000a0: cfdd 413e a89f fb3d 3ffc 943d e578 443b
000000b0: 0c04 6d3d d8e9 2f3d 0855 00bc 1ec2 933d
000000c0: 238c a13e dad7 5ebd 9db1 803e 3082 da3c
000000d0: d94d d93c 68f7 4abd 1561 7b3d f522 f93b
000000e0: 2b7d 273c d6ac b5bc 009f c43e 8142 893e
000000f0: 346b 253e 5913 233c 3155 43bd 36d2 163c
