models/electronics_cooling_model.pth (torch, 20540 bytes, 5 tensors)

fc1.weight f4 [64, 2]
00000000: 05ff 03be 481a a5be ed3d 303f bfb2 433f
00000010: 0240 37bd 8bd6 5a3d e152 d53b 2a94 85bd
00000020: 1505 98bd c39c 023e 10b3 d33d cca2 0abf
00000030: 6ef5 b3be 8b47 f13c ee06 9fbd 41e2 053e
00000040: 40d2 bebe d8c7 983c 0c0f 83be 5c4f 89be
00000050: 0ad7 083f 68ee cb3e f38a 5bbd c040 bb3d
00000060: 483f 293f 7bf7 e13e f518 d2bd c65f 2b3e
00000070: 31fd 13bf e521 f0be 2539 27bd 67fc 7f3d
00000080: bd5d 2d3d 06bb 11bf 3f11 f6be 8a02 53bd
00000090: 7be8 0dbe b2b6 413e 41db 77be 7864 f3be
000000a0: 6b16 09bf dc74 853e 6c34 13bf 9df6 203f
000000b0: bc6d 24be 9283 063d 3bcb d33e b92f 003f
000000c0: cb30 2d3d 8c7d bbbe f345 5bbe e4b4 a73e
000000d0: f38f 183d ec9a fdbe 051b 43be 333e c73e
000000e0: 5a94 efbe a310 e8be 80ce 09bf d184 ae3d
000000f0: c6d5 29bd 5338 403e 063a 993e ceae 6cbe
00000100: 7270 603d c76e 40bf 41bd 99be a60a 09bf
00000110: bd05 54be 3127 883e 7f80 ba3c ea26 90be
00000120: 0dfe d93a 7521 47bd ee8f eebd 6fc3 283e
00000130: 57b2 a5be 3faa 9ebd a087 adbe 8a3d 0c3f
00000140: 6429 acbe 7597 6fbe b346 483d 5f4f 36bf
00000150: 7a88 fcbd 0fa6 383e a996 e73a 600e 4cbe
00000160: 3922 05bc 2640 0cbc 36e9 99be ca93 c83e
00000170: c182 f9be 062a d33e 1cc0 3ebe 0718 d9be
00000180: af69 25be e099 17bf 568d 1abf bb28 de3e
00000190: fcbb f7bd 478b 2f3e 91f3 6b3c 20b8 5abe
000001a0: d404 813c 321a 27be 2a9f 083d ac17 fcbe
000001b0: 07f6 33bf 5100 e63e 2972 d0bc f8a7 663d
000001c0: b38d da3e 2c9a de3e 2847 aebc a560 5d3d
000001d0: 9f09 d7bd 61ff 333e 9c05 a73b 6375 fcbd
000001e0: 51b7 0ebf dd60 93be 39d2 403f 7d15 c93e
000001f0: be82 cebd 685b 173e 49f3 e0be 06c4 67be
-0.12890251 -0.32246614 0.6884449 0.7644462 -0.044738777 0.05342726 0.006510124 -0.06522401
-0.07422844 0.12755112 0.10336888 -0.5415466 -0.35148185 0.02945306 -0.077649936 0.1307459
-0.37269783 0.01864998 -0.25597417 -0.2681836 0.53453124 0.39830327 -0.05359931 0.091432095
0.66112185 0.44134125 -0.102586664 0.16735753 -0.57808214 -0.4690086 -0.04082598 0.06249657
0.042325724 -0.56926 -0.48060033 -0.051516093 -0.13858216 0.18917349 -0.24204732 -0.4753759
-0.5354983 0.2606572 -0.57501864 0.628763 -0.16057485 0.03284032 0.4136599 0.5007282
0.04228286 -0.36619222 -0.21413402 0.32755196 0.037246656 -0.4953226 -0.19053276 0.38914642
-0.4679287 -0.45325193 -0.5383072 0.085214265 -0.041463636 0.18771486 0.2992708 -0.23113558
0.054794736 -0.7516903 -0.30027202 -0.53531873 -0.20705314 0.265924 0.02276635 -0.2815469
0.0016631499 -0.04861589 -0.11648546 0.16480802 -0.32362625 -0.077473156 -0.33892536 0.547814
-0.3362533 -0.2339762 0.04889555 -0.7121486 -0.12330718 0.18032096 0.0017668802 -0.19927359
-0.008125835 -0.008560216 -0.30060738 0.39175254 -0.4873257 0.41243 -0.18627971 -0.42401144
-0.16153596 -0.5921917 -0.6037191 0.4339045 -0.12096402 0.17142974 0.0144013325 -0.213593
0.015749373 -0.16318586 0.033354916 -0.4923681 -0.7029728 0.44922116 -0.02544506 0.05631253
0.42686233 0.43477 -0.021274164 0.054047246 -0.10499882 0.17577888 0.0050971042 -0.12327077
-0.5574847 -0.28784838 0.75320774 0.39274207 -0.10083531 0.14780962 -0.43935612 -0.22633371

fc1.bias f4 [64]
00000000: 87cc 023f 908a b33e 828a a03c c14d c5be
00000010: c508 41bf cfac 363b 45a6 653d 79f6 48bf
00000020: 48b2 2b3f b646 e7bd 9902 913c 94ab 0ebf
00000030: 433b 6bbf ab02 55bf 3290 37bd 1729 b1be
00000040: 1412 3dbf 67d8 1f3f f464 3f3d 675c 0dbf
00000050: 9c6b 2d3f 1a02 c1be 8872 043f 680b 83bc
00000060: 7377 2cbf 3c19 35bf f44d 32bf fee3 32bf
00000070: 440d 11bf e98c ffbe 2167 8abe 67d4 5bbf
00000080: 4da0 4cbf 229d 7c3e fceb a43e 1af1 13bf
00000090: ef3b 673e 5e27 3abd 329a 67be d3a8 f8bd
000000a0: 4779 2abf 38af 57be 9f2c 92be c0db f1be
000000b0: c890 a03e 3a64 0b3f c12c babe a9af 85be
000000c0: cfc8 2bbf 4d5e 0dbe 167e 5cbf b40e b5bd
000000d0: 43ab 34bf 06eb b3be a67b 2e3e 280c 1fbf
000000e0: 660f babd 6ab8 5ebf b3a0 87bf 5c9f e43e
000000f0: 95ff 963e cfad f63e 366d 64be 88da dabe
0.51093334 0.35066652 0.019597296 -0.38535884 -0.75404006 0.0027873998 0.05606677 -0.7850109
0.6706891 -0.11292784 0.017701434 -0.5573056 -0.918873 -0.83207196 -0.04481525 -0.34601662
-0.7385571 0.6243958 0.046727136 -0.5521912 0.67742324 -0.37696916 0.5173726 -0.01599665
-0.67369765 -0.7074163 -0.696502 -0.6987914 -0.56660867 -0.49912193 -0.27031806 -0.85870975
-0.799321 0.24669316 0.32211292 -0.57789767 0.22581457 -0.0454477 -0.22617415 -0.12141576
-0.66591305 -0.21062934 -0.28549668 -0.47237968 0.3136046 0.5444981 -0.3636227 -0.2611058
-0.67103285 -0.13805504 -0.8612989 -0.08840695 -0.70573825 -0.35140246 0.17039356 -0.62127924
-0.09084968 -0.87000144 -1.0595917 0.44652832 0.2949187 0.4817948 -0.22307286 -0.4274485

fc2.weight f4 [64, 64]
00000000: 80d3 55bd 55ca d63d 910a dfbc b20c f03d
00000010: fc6b c8bd ceef 083d 6008 dfbc a6fe 673d
00000020: 8a18 e03d d0a7 4bbc 1173 4b3a 80d3 663c
00000030: 9530 1e3e ef03 94bd 6c45 b3bd 6d7e 863d
00000040: 950a 123e f044 9a3d 677b af3c 8a59 83bd
00000050: a835 b9bd c2e4 ba3d 703f 863d 6bd5 ce3d
00000060: aa4b c43d bd25 a9bd 2aac 8f3d a3ea 1bbd
00000070: d482 f8bd 40e5 7ebb 55cd 8f3d 4a58 1c3e
00000080: 8093 4e3d c03f a1bd 6c62 5fbd 00cd a6bd
00000090: edec 80bd f0f9 323d 20c9 3a3c a934 24be
000000a0: 5cae e1bd 04ce 373d 76f7 5d3d f06e 9f3c
000000b0: 3c89 13bd 2e97 cdbd 98e8 22bd 9ccb ae3d
000000c0: ec10 633d 68a6 9cbc fb99 903c 73ff e5bd
000000d0: 6cb4 1fbd c024 f33b 6696 953d bee8 bd3d
000000e0: 7774 f13d 2781 963d 8974 a1bd 32ab c3bd
000000f0: 6c58 d53d b351 763e 6251 c3bd dab6 f5bd
00000100: a00a 643c 881d 013e 8c26 513d 0902 0abe
00000110: 7961 cfbd 8ea5 8abd 0427 28bd bf86 22be
00000120: ae81 cdbd c6c0 bb3d c9d7 7bbc ffe2 86bd
00000130: 26ec 78bd d841 3bbd 0898 023d c761 c4bc
00000140: d5d2 b0bd aa32 e8bd fe91 9cbd c2d9 a4bd
00000150: e8cc bb3d 1c69 8abd daf1 9fbd 3d93 863d
00000160: 3fd2 08bd 710b bd3c edc0 3dbd e167 7bbd
00000170: 503e cebc bacf e73d 31fb 67be dda8 abbe
00000180: c21d cbbd 50a9 d83c f401 75bd d17d 363c
00000190: 1881 0ebe 3e3b 91bc 9636 fcbd 3094 c4be
000001a0: 2ee5 f5bd 0011 22be c218 b6bd 2218 923d
000001b0: 4435 efbd 6a5b fdbd e0c7 c6bc 3c36 cbbd
000001c0: 74f7 06bd 509a 6cbd 3e3d 26be 0050 853d
000001d0: eab0 1a3d 7208 833b 4862 13bd 54f2 99bd
000001e0: 5707 6bbe 30e7 3fbd 3ce2 39be 87dc 27be
000001f0: 0ccb 91bd d39c 15be 765f 15bc 381e 8c3d
00000200: 9825 25bd bbb8 2cbe d12d 94bd 0284 b6bd
00000210: b2ca 4bbd e68d 4b3c 88c9 e0bc f11b 3fbc
00000220: aaf5 8e3d d051 b13d f003 67bc 6842 833c
00000230: be2e ccbc 52b4 13be f638 87bd b572 2e3d
00000240: e9cf 86bd d0f2 b73c 5557 31be 6809 333d
00000250: 10c1 3ebd 00d5 bdba 70e8 a23d 07d6 03bd
00000260: a0a0 efbd 425a a43d e95d 97bd f36c d93d
00000270: d09c d23c d0b5 ffbc 946b 33be 2ac0 8fbd
00000280: 59de 49bb 246d 30bd 184a f63c 1a69 e1bd
00000290: b3c3 863d b93e 263d 64fc 0e3d 9537 7c3d
000002a0: 88cf 87bc be35 35be 1916 0fbe 683d 86bc
000002b0: 2d09 6a3d bedf a13d 00d1 423c 8472 123d
000002c0: 3414 e93d ba3a 87bd 9a62 64bc 3da4 723b
000002d0: 87fa 91bc 6c18 56bd c431 943d 0ef0 88be
000002e0: 1efa 97bd 66e9 1f3c 86c7 d7bd cfba 0c3c
000002f0: c2b3 bc3d 2023 41bd 8eec ad3c e830 7c3d
00000300: 8002 133c f31e 0bbd 65e0 ab3b 3bab 083d
00000310: 4290 08be fded c2b9 88eb 433d e5f4 20bd
00000320: 0c4f 81bd f467 4b3d 252c f7bd de9c f6bd
00000330: 887f 20bd 1699 cbbb 0e2d bc3d 8f12 343d
00000340: 6317 99bd d0a2 25bd 70e7 91bc 481f a7bd
00000350: 80ad 513c 4abf ca3d f454 febd b820 e5bd
00000360: f9c3 a13c dfe6 c33d 40ae 2abd 52f5 263d
00000370: a838 2abd 1c3b 3abd 3b35 94bd ac8b b4bd
00000380: cc10 8ebc 001c 6fba 50c3 ccbc 6abd 1abd
00000390: 8e67 dcbd 00eb 09be 7e0b 9fbd a8e8 a53d
000003a0: 4221 f4bd a319 dcbd ea3b 0dbe 1efb 853d
000003b0: 17e9 2d3d b320 7e3c 3c31 e83d 7226 e8bd
000003c0: fc35 aa3d 2035 8f3b d1bc 39be 94e3 62bd
000003d0: 1daf c23c f1d1 5abd 961c 8ebd d24a b43c
000003e0: e619 51bc 6aae 63be f0a8 b3bd 39af 90bd
000003f0: 120b e3bd 7287 abb9 0cdd 89bd d8a5 d43d
-0.052203655 0.104878105 -0.027226718 0.117211714 -0.097862214 0.03343182 -0.027225673 0.056639336
0.109421805 -0.012430146 0.00077609817 0.0140885115 0.1544822 -0.07227313 -0.087534755 0.065670826
0.14261849 0.0753268 0.021421148 -0.064135626 -0.09043437 0.09125663 0.065550685 0.100993
0.09584744 -0.08259151 0.070152596 -0.038065564 -0.121343285 -0.0038893968 0.07021586 0.15268055
0.050433636 -0.078734875 -0.05453722 -0.081445694 -0.0629519 0.04369539 0.011400491 -0.16035713
-0.110195845 0.044874206 0.054191075 0.019462079 -0.03601955 -0.10038601 -0.0397726 0.08534929
0.05543606 -0.019122317 0.017651549 -0.11230364 -0.038990423 0.0074201524 0.07304077 0.09272908
0.11789792 0.073488526 -0.078835554 -0.09554137 0.10417256 0.24054603 -0.09537007 -0.11997767
0.013918549 0.12608922 0.05106215 -0.13477339 -0.10126013 -0.06769858 -0.041052833 -0.15871714
-0.100345 0.09167628 -0.015371271 -0.06586265 -0.060772084 -0.04571709 0.03188327 -0.023972405
-0.08633963 -0.113377884 -0.07645033 -0.080493465 0.09169942 -0.06758329 -0.078098014 0.06571052
-0.03340363 0.023076745 -0.046326566 -0.061378364 -0.025176197 0.113189176 -0.22654416 -0.3352727
-0.09917785 0.026447922 -0.059816316 0.011138395 -0.13916433 -0.017728444 -0.12315099 -0.38394308
-0.12006603 -0.15826797 -0.08891441 0.07133509 -0.116800815 -0.123709515 -0.02426523 -0.09922454
-0.032950833 -0.05776435 -0.162343 0.065093994 0.037766375 0.0039988095 -0.0359824 -0.075169235
-0.22952019 -0.046851337 -0.18152708 -0.16392718 -0.07118806 -0.14610605 -0.009116998 0.06841701
-0.040319055 -0.16867344 -0.07235301 -0.08911897 -0.049753852 0.012423968 -0.027439848 -0.011664377
0.069804505 0.086581826 -0.01410006 0.016022876 -0.024924632 -0.14424255 -0.06602661 0.042589862
-0.065826245 0.02245465 -0.17318471 0.043710142 -0.046570837 -0.0014483035 0.0795449 -0.032186534
-0.11700559 0.08025028 -0.07390959 0.106164835 0.02570954 -0.031214625 -0.17521507 -0.07019074
-0.0030802696 -0.043072835 0.030064628 -0.11006375 0.065802954 0.04058716 0.034908667 0.061576445
-0.01657845 -0.17696282 -0.13973273 -0.016386703 0.057137657 0.079040036 0.01189065 0.03575374
0.113808066 -0.06602998 -0.013939524 0.0037024163 -0.017819656 -0.052269384 0.072360545 -0.26745647
-0.07420753 0.009760236 -0.10536103 0.0085894605 0.092139736 -0.04715264 0.021230962 0.061570078
0.008972764 -0.033965062 0.005245256 0.033366423 -0.1333628 -0.0003717988 0.047832042 -0.03929605
-0.06313905 0.049659684 -0.12068967 -0.12041639 -0.039184123 -0.0062133176 0.09188281 0.04396301
-0.07475164 -0.040438473 -0.017810553 -0.08160263 0.012797713 0.09899767 -0.12418547 -0.11187881
0.019746767 0.095655195 -0.041670084 0.0407613 -0.041557938 -0.045466527 -0.072367154 -0.08815703
-0.017341994 -0.0009121299 -0.024995476 -0.037778296 -0.10761939 -0.13468552 -0.07765864 0.08101016
-0.11920406 -0.10747077 -0.13792387 0.065420374 0.04245862 0.015510726 0.11337516 -0.11335458
0.08311078 0.0043703467 -0.18138434 -0.055392817 0.023765141 -0.053422872 -0.06939046 0.022008333
-0.012762522 -0.22234502 -0.08772457 -0.07064671 -0.11086096 -0.00032716576 -0.067316145 0.10383195

fc2.bias f4 [64]
00000000: b9e6 ee3d 0b33 7ebd 3cf5 72be e1e5 3dbe
00000010: 2d0c 1f3e 4168 4cbe f48c ccba 7d91 34bd
00000020: 0390 b7bd 15cb 21bc 562b 143e 8d56 83bd
00000030: bc5a 2c3f 443c 383e ce4d b53d 1570 683e
00000040: 1284 593d 17a4 223e 650c 503e b681 e83d
00000050: 0865 07be e063 683e c43f 28bc a95b 083f
00000060: 7eb1 f43e ce06 24be 402f 953d 253c 1ebe
00000070: e10e 2e3e 7c39 cb3e ecf4 babd 8bf8 083f
00000080: ac53 243e 386c eb3e e438 6c3e b71c 8e3d
00000090: 2fc8 f03d 1580 89bd 8b90 dc3e 4eb5 dcbd
000000a0: 8816 e2bd acf7 7f3e d30d ccbd e351 5c3e
000000b0: c3e2 3fbe 5848 8f3e 8664 41be f292 e93e
000000c0: 1251 51be 7280 fdbd b3bf 9bbd f800 bc3d
000000d0: fbfe 4a3e 1c4f bc3d 878b 3c3b 8045 c33e
000000e0: 609a 95bd 3585 89bb 7327 cb3e 9b38 17be
000000f0: 1e88 7c3e 3fc5 c53d d4a5 b6bd 5e1d ff3e
0.116651006 -0.062060397 -0.23726362 -0.18544723 0.15531988 -0.19961645 -0.0015605972 -0.04408406
-0.08963015 -0.009875079 0.14469656 -0.064129926 0.6732595 0.1799174 0.08852731 0.22699006
0.053104468 0.15882908 0.20317228 0.113528654 -0.13222134 0.2269435 -0.010269109 0.5326486
0.47791666 -0.16018221 0.07284403 -0.15452631 0.16997863 0.39692295 -0.091287464 0.53504246
0.16047543 0.45981002 0.23068577 0.06939071 0.11756932 -0.06713883 0.43079028 -0.107767686
-0.11039454 0.24996823 -0.09963574 0.21515612 -0.18738846 0.2798488 -0.18886003 0.45619923
-0.20441082 -0.123780146 -0.07604923 0.09179872 0.1982383 0.091947764 0.0028769688 0.38138962
-0.07304835 -0.0041967877 0.39678535 -0.14767687 0.246613 0.09656762 -0.08918348 0.49827093

output.weight f4 [1, 64]
00000000: bcdb fb3d 73cb 8e3c 1860 d63a 847b 77bc
00000010: c91d 233e 1f00 84bd aa8a e23c a74b 15bd
00000020: d6c6 76bc 0c10 64bc 23f4 863e 8f23 a8bc
00000030: b8c0 883e c5e6 e23d eb65 1b3e 9b4a 283e
00000040: fca2 273c 9ad0 833d 1261 f03c 025d 8e3d
00000050: 866d c4bd f64b d83d 92c3 f73c 0238 1a3e
00000060: 2cf8 6a3e edbd a73e f6d2 bd3d 46bb 273c
00000070: dfa9 0b3d 4eff db3e e8da 60bd 7d3c 343e
00000080: a0b7 0e3e ee39 073e 2391 073e 212f eb3c
00000090: 7bf5 d63d f991 ad3d 8b0a 5a3e 227e 82bc
000000a0: 451b 123c 3597 6e3e 15ae 0f3e 8247 ec3d
000000b0: c0fc c03c 2383 e43d 0c33 e93c 2d8f 593e
000000c0: 1d54 e63c 7241 3b3d 6feb d93c fba6 413e
000000d0: 1dd1 0c3e ef6d 173c 4d7d 263e 3c68 053f
000000e0: 20bf eebb efd0 853c 56ea 6f3d 729e 06bd
000000f0: a18e d03e c1e5 503d dd24 22bc 9ed2 a93e
0.122977704 0.017430997 0.0016355542 -0.015105132 0.15929331 -0.064453356 0.02765401 -0.0364491
-0.015062055 -0.0139198415 0.26358137 -0.020524768 0.26709533 0.11079172 0.15175597 0.1643471
0.01023173 0.06436272 0.029343162 0.069513336 -0.095912024 0.105613634 0.030244622 0.15060428
0.22946233 0.3276209 0.09268753 0.010237521 0.03409755 0.4296822 -0.054896265 0.176012
0.13937235 0.13205692 0.13238959 0.028708996 0.104960404 0.08475108 0.21293084 -0.015929285
0.008917634 0.23299868 0.14031251 0.115370765 0.02355802 0.11157825 0.028466724 0.21246023
0.02811628 0.04571671 0.026601521 0.18911354 0.13751645 0.009242519 0.16258736 0.52112174
-0.0072859675 0.016334979 0.05857309 -0.03286595 0.40733817 0.05100036 -0.009896484 0.331685
